…
sses': 10, 'train_set_path': './data/cifar-10', 'test_set_path': './data/cifar-10', 'augmentation': {'normalize': True, 'random_crop': True, 'random_horizontal_filp': True}, 'device': 'cuda', 'input_size': 32, 'batch_size': 128, 'num_epochs': 50, 'num_print': 100, 'num_workers': 4, 'eval_freq': 1, 'test_batch': 200, 'optimizer': {'name': 'Adam', 'params': {'lr': 0.002}}, 'lr_scheduler': {'type': 'STEP', 'lr_epochs': [20, 40], 'lr_mults': 0.1}, 'learning_curve': {'style': 'ggplot', 'xtick_step': 5, 'draw_freq': 10, 'save_path': './'}}
NiN(
  (features): Sequential(
    (0): Sequential(
      (0): Conv2d(3, 96, kernel_size=(7, 7), stride=(2, 2), padding=(2, 2))
      (1): ReLU(inplace)
      (2): Conv2d(96, 96, kernel_size=(1, 1), stride=(1, 1))
      (3): ReLU(inplace)
      (4): Conv2d(96, 96, kernel_size=(1, 1), stride=(1, 1))
      (5): ReLU(inplace)
    )
    (1): MaxPool2d(kernel_size=3, stride=2, padding=0, dilation=1, ceil_mode=False)
    (2): Sequential(
      (0): Conv2d(96, 256, kernel_size=(5, 5), stride=(1, 1), padding=(2, 2))
      (1): ReLU(inplace)
      (2): Conv2d(256, 256, kernel_size=(1, 1), stride=(1, 1))
      (3): ReLU(inplace)
      (4): Conv2d(256, 256, kernel_size=(1, 1), stride=(1, 1))
      (5): ReLU(inplace)
    )
    (3): MaxPool2d(kernel_size=3, stride=2, padding=0, dilation=1, ceil_mode=False)
    (4): Sequential(
      (0): Conv2d(256, 384, kernel_size=(3, 3), stride=(1, 1), padding=(1, 1))
      (1): ReLU(inplace)
      (2): Conv2d(384, 384, kernel_size=(1, 1), stride=(1, 1))
      (3): ReLU(inplace)
      (4): Conv2d(384, 384, kernel_size=(1, 1), stride=(1, 1))
      (5): ReLU(inplace)
    )
    (5): Dropout(p=0.5)
    (6): Sequential(
      (0): Conv2d(384, 10, kernel_size=(3, 3), stride=(1, 1), padding=(1, 1))
      (1): ReLU(inplace)
      (2): Conv2d(10, 10, kernel_size=(1, 1), stride=(1, 1))
      (3): ReLU(inplace)
      (4): Conv2d(10, 10, kernel_size=(1, 1), stride=(1, 1))
      (5): ReLU(inplace)
    )
  )
  (classifier): AdaptiveAvgPool2d(output_size=(1, 1))
)
-------------------- Training parameters: 1994662 --------------------
[2020-03-03 09:16:01,830] - ========== epoch: [1/50] ==========
[2020-03-03 09:16:02,970] - step: [100/391], train_loss: 2.288 | train_acc: 14.320% | lr: 0.002000
[2020-03-03 09:16:03,811] - step: [200/391], train_loss: 2.231 | train_acc: 15.980% | lr: 0.002000
…
